…
p_bias_lr=0.1, box=10.0, cls=0.3, dfl=1.5, pose=12.0, kobj=1.0, label_smoothing=0.1, nbs=64, hsv_h=0.015, hsv_s=0.7, hsv_v=0.4, degrees=0, translate=0.1, scale=0.5, shear=0, perspective=0, flipud=0.0, fliplr=0.5, bgr=0.0, mosaic=0.5, mixup=0.2, copy_paste=0.1, copy_paste_mode=flip, auto_augment=randaugment, erasing=0.0, crop_fraction=1.0, cfg=None, tracker=botsort.yaml, save_dir=natural_disaster_detection\yolov11m
Overriding model.yaml nc=80 with nc=3

                   from  n    params  module                                       arguments
  0                  -1  1      1856  ultralytics.nn.modules.conv.Conv             [3, 64, 3, 2]
  1                  -1  1     73984  ultralytics.nn.modules.conv.Conv             [64, 128, 3, 2]
  2                  -1  1    111872  ultralytics.nn.modules.block.C3k2            [128, 256, 1, True, 0.25]     
  3                  -1  1    590336  ultralytics.nn.modules.conv.Conv             [256, 256, 3, 2]
  4                  -1  1    444928  ultralytics.nn.modules.block.C3k2            [256, 512, 1, True, 0.25]     
  5                  -1  1   2360320  ultralytics.nn.modules.conv.Conv             [512, 512, 3, 2]
  6                  -1  1   1380352  ultralytics.nn.modules.block.C3k2            [512, 512, 1, True]
  7                  -1  1   2360320  ultralytics.nn.modules.conv.Conv             [512, 512, 3, 2]
  8                  -1  1   1380352  ultralytics.nn.modules.block.C3k2            [512, 512, 1, True]
  9                  -1  1    656896  ultralytics.nn.modules.block.SPPF            [512, 512, 5]
 10                  -1  1    990976  ultralytics.nn.modules.block.C2PSA           [512, 512, 1]
 11                  -1  1         0  torch.nn.modules.upsampling.Upsample         [None, 2, 'nearest']
 12             [-1, 6]  1         0  ultralytics.nn.modules.conv.Concat           [1]
 13                  -1  1   1642496  ultralytics.nn.modules.block.C3k2            [1024, 512, 1, True]
 14                  -1  1         0  torch.nn.modules.upsampling.Upsample         [None, 2, 'nearest']
 15             [-1, 4]  1         0  ultralytics.nn.modules.conv.Concat           [1]
 16                  -1  1    542720  ultralytics.nn.modules.block.C3k2            [1024, 256, 1, True]
 17                  -1  1    590336  ultralytics.nn.modules.conv.Conv             [256, 256, 3, 2]
 18            [-1, 13]  1         0  ultralytics.nn.modules.conv.Concat           [1]
 19                  -1  1   1511424  ultralytics.nn.modules.block.C3k2            [768, 512, 1, True]
 20                  -1  1   2360320  ultralytics.nn.modules.conv.Conv             [512, 512, 3, 2]
 21            [-1, 10]  1         0  ultralytics.nn.modules.conv.Concat           [1]
 22                  -1  1   1642496  ultralytics.nn.modules.block.C3k2            [1024, 512, 1, True]
 23        [16, 19, 22]  1   1413337  ultralytics.nn.modules.head.Detect           [3, [256, 512, 512]]
YOLO11m summary: 409 layers, 20,055,321 parameters, 20,055,305 gradients, 68.2 GFLOPs

Transferred 643/649 items from pretrained weights
TensorBoard: Start with 'tensorboard --logdir natural_disaster_detection\yolov11m', view at http://localhost:6006/
Freezing layer 'model.23.dfl.conv.weight'
AMP: running Automatic Mixed Precision (AMP) checks with YOLO11n...
AMP: checks passed âœ…
…
